app/src/main/ml/model.tflite (tflite, 978792 bytes, 8 tensors)

sequential/conv2d/BiasAdd/ReadVariableOp f4 [32]
000000 9f cf 97 3d 57 e4 bf 3d 57 9d 25 3c 32 df 25 bd
       0.074126475 0.09369724 0.0101083135 -0.04049606
000010 55 ed c9 bc 6b e6 4d 3d df 0f 9f bd a2 d6 b2 bc
       -0.024649302 0.05026857 -0.07766699 -0.02183086
000020 32 ce 12 bd 99 44 21 bb c7 b4 0e bd 0a 55 07 bd
       -0.035841174 -0.0024607538 -0.03484037 -0.033040084
000030 9d 50 26 bb c4 8e 93 3c a0 ac 19 3c 36 e9 b8 bc
       -0.002537764 0.018012412 0.009379536 -0.022572141
000040 b4 1c 34 3c d7 5e 55 bd 67 c0 7e bd f4 a5 49 3d
       0.0109931715 -0.0520924 -0.062195208 0.04923053
000050 f9 a5 c4 bc 07 db 45 bd 3a c6 09 bd 01 bf 6a 3d
       -0.024004923 -0.048304584 -0.03363631 0.05731106
000060 de f7 25 bd 73 38 f9 3b 4b 58 cf bc 7a 51 90 3c
       -0.040519588 0.007605606 -0.025310656 0.017616976
000070 da 7e 96 3c e4 69 40 bd 15 39 62 bd 7c 35 b5 3c
       0.018371034 -0.046975985 -0.05523022 0.02212023

sequential/conv2d_1/BiasAdd/ReadVariableOp f4 [64]
000000 1d 26 40 bd d7 15 2d 3c d8 38 59 3d 6c 5f 99 bb
       -0.046911348 0.010564289 0.053032726 -0.0046805646
000010 09 5c 57 bc 19 76 16 bc bd d4 b2 3c b6 06 d4 bc
       -0.0131445015 -0.00918343 0.021829957 -0.025882106
000020 89 81 5c bc 6b 6b a6 3d 89 93 07 3c bc a3 c2 3c
       -0.013458618 0.08125957 0.008274921 0.023759715
000030 ce 87 91 bb a7 fd 68 bb b4 8e 0d 3d 33 13 08 bc
       -0.004441238 -0.003555158 0.03455992 -0.008305359
000040 65 f7 34 bd c0 a0 0a bd 36 73 14 3d 0b 13 09 bd
       -0.044181246 -0.03384471 0.036242686 -0.033465426
000050 87 61 ae 3c 35 13 bc 3c 1c e8 03 3d e7 b6 77 3b
       0.021286739 0.022958377 0.03220378 0.0037798227
000060 3e 20 3e 3d db 57 31 3c 85 c2 92 bb 6b fc 92 bc
       0.046417467 0.010824169 -0.004478755 -0.017942628
000070 e0 d8 c9 bc 1d a1 b5 bc fe 7f 4a bc 22 15 17 bd
       -0.024639547 -0.022171551 -0.012359617 -0.03688539
000080 7d fb 8a bc 06 ce 35 bc 03 cd 21 ba 1d 8a 42 ba
       -0.016965622 -0.011096483 -0.0006172212 -0.0007421093
000090 4d 0e 11 3c df 6b 21 bc 2d 70 b7 bc 4c 51 6f bd
       0.008853507 -0.009852379 -0.022392357 -0.05842714
0000a0 35 d2 b8 bb 6a fb 88 bc 8b d6 07 bc 5e 6a 13 3c
       -0.005640293 -0.016721446 -0.008290897 0.008997528
0000b0 44 c7 14 bd db 6b ab 3c fe 28 57 3c 34 65 4c 3c
       -0.036322847 0.020925453 0.013132332 0.012475301
0000c0 9f e0 43 3d ec 1c de 3c ec 0a c9 bc 14 d1 09 3d
       0.047821637 0.0271134 -0.02454134 0.033646658
0000d0 9a 19 65 3d 7e b6 1a 3c a4 5e c0 bc bb fa de bc
       0.05593262 0.009442924 -0.023482628 -0.027219167
0000e0 6f c6 bf bc 37 b2 05 bd ed db b4 3d ae c5 3c bc
       -0.02341005 -0.032640662 0.0883101 -0.01152174
0000f0 31 5e 09 bc 20 87 13 bb f7 5a ee bc ab 98 2e bd
       -0.008384273 -0.002251096 -0.02909611 -0.042626064

sequential/conv2d_2/BiasAdd/ReadVariableOp f4 [128]
000000 b4 ec b7 bc 86 13 e9 bc 9c d2 b4 bb 32 f7 11 bc
       -0.022451736 -0.028451692 -0.0055182707 -0.008909034
000010 99 b9 8c bc aa f7 11 bc 3f 2f 4c 3d 1f 53 13 bc
       -0.017178344 -0.008909145 0.049849745 -0.008991986
000020 05 9e c9 3c 1f 63 72 3c 07 c8 e5 bc 8c b3 36 3d
       0.024611482 0.01479414 -0.028049482 0.044604823
000030 c4 bd 09 3b 66 99 8e 3c 76 38 ef bb 43 f5 1e bc
       0.002101765 0.01740713 -0.007300432 -0.00970203
000040 7b 1e 9a bc 4b 13 56 bb 34 f5 41 bd b1 6d 6f bc
       -0.018813362 -0.0032665308 -0.047352985 -0.014613555
000050 e6 68 c3 b8 3f 03 7f bb ad 4f 86 ba 4a 39 a0 bc
       -9.3178634e-05 -0.0038911847 -0.0010247134 -0.019558568
000060 4c 3e 2c bd 20 12 4b bc 95 e3 9b bc 1a 8c 0a bc
       -0.0420516 -0.012394458 -0.019029418 -0.008456254
000070 9a 3d 67 bc f7 1e 96 bc 0f 39 31 bc 8b 6a 07 bc
       -0.014113808 -0.018325312 -0.0108168265 -0.008265148
000080 8a 83 25 bc 53 82 1a 3c cb 8e 0e bd 4c 99 1d bd
       -0.010102162 0.009430486 -0.034804147 -0.038476273
000090 31 74 25 3d 49 a9 6c 3c 7b 15 1b bc d5 63 97 bb
       0.040394012 0.014444658 -0.009465571 -0.004620055
0000a0 c2 f0 2a bc 75 56 eb bb cc d9 49 bc 2f b5 14 bd
       -0.010433378 -0.0071819373 -0.012319993 -0.036305603
0000b0 55 d2 a8 bb 2d 74 07 bd 92 6b 4a bb b9 0c b1 bc
       -0.0051520267 -0.03306978 -0.003088687 -0.021612512
0000c0 4b ce 99 bc 3e c9 4a bd f7 67 d9 bc 04 87 2b bc
       -0.018775126 -0.049508326 -0.026538832 -0.010469202
0000d0 57 eb ea bc a9 b3 13 bc 98 7f 10 bb eb 17 90 bb
       -0.028676672 -0.009015002 -0.0022048708 -0.0043973825
0000e0 cb af 13 bc 51 63 8c bd 6f cf 90 bc 1e 6b bb bc
       -0.00901408 -0.068548806 -0.017677037 -0.022878226
0000f0 c4 2e c3 bc 85 57 20 3c cc 21 15 3d f5 81 cf bc
       -0.02382601 0.009786491 0.036409184 -0.025330523
000100 b9 11 ec bb f5 16 97 bc c7 fe 8a 3c 77 c0 03 bc
       -0.007204261 -0.018443564 0.01696719 -0.008041493
000110 83 35 9a bc 88 93 44 bd 3d 70 bd bc 1c e0 d2 bc
       -0.018824345 -0.04799226 -0.023124808 -0.02574163
000120 7a 5e a8 3c 02 a3 8a 3c 7d 46 2e 3c 62 9b 33 bd
       0.020552862 0.016923431 0.010636923 -0.043849356
000130 ab e4 89 3c 73 8d 98 bc 73 e0 55 bc c6 fc 9e bd
       0.01683267 -0.018622136 -0.013054001 -0.077630565
000140 da b8 a3 3c f2 57 10 bd d9 53 98 bc 35 6c 27 bc
       0.019985605 -0.03524012 -0.01859467 -0.01021867
000150 4c 5c 21 bc 54 9a 7d 3c d7 e9 c4 3c 1e e9 88 bc
       -0.009848665 0.015478689 0.024037285 -0.016712721
000160 b4 22 b9 bc ad b4 23 bd ca 8f 32 bc ba d7 29 bc
       -0.022599556 -0.039967228 -0.01089854 -0.010366375
000170 27 49 8c bb 33 0b 19 bc 6b 89 07 bc e4 6f 10 bd
       -0.0042811814 -0.009341049 -0.008272509 -0.035262957
000180 dc 50 02 3d 35 f4 64 3c f9 57 18 bd 7a cd d9 bb
       0.031815395 0.013974239 -0.037193272 -0.006646809
000190 b0 44 0f bc f4 0f 20 bc 67 ea 1b 3d d5 03 ff 3b
       -0.008744404 -0.0097694285 0.03806534 0.0077824392
0001a0 b4 e8 e8 bc 6d 79 03 bc 78 3f 44 bc 5e 2b 11 bc
       -0.028431274 -0.008024556 -0.011978023 -0.008860437
0001b0 f0 d3 eb 3b f5 88 90 3a 38 78 b0 3b cb 67 54 3c
       0.007196896 0.0011027145 0.005385425 0.012964199
0001c0 be e4 b4 bc 83 22 9d bb 69 fa 9d bc 7b 1f b9 bc
       -0.022081729 -0.004795374 -0.019284444 -0.022598019
0001d0 8c 1f 4b bb 32 77 c7 bc 1d 6d 0e bc 66 d2 9c bd
       -0.0030994145 -0.024348829 -0.008693007 -0.07657318
0001e0 27 af d4 3b 79 57 40 bc 3b cb 94 bb 56 42 3d bd
       0.0064906063 -0.011739605 -0.0045408285 -0.04620584
0001f0 1e 05 99 bb 27 c8 30 3d 45 2f 32 bc 9c 61 0d bc
       -0.0046697995 0.04315963 -0.010875528 -0.008629229

sequential/conv2d/Conv2D f4 [32, 3, 3, 3]
000000 c1 c1 f6 bc ce eb 7d bd f1 e4 3a 3e 30 c9 d0 3d
       -0.030121686 -0.06199246 0.18251397 0.101946235
000010 ee 75 a4 bd 1d 8e a5 3c 4f 48 a3 bc d5 4a a4 bb
       -0.08030306 0.020209366 -0.01993194 -0.0050138035
000020 8c e8 c5 3d c8 60 bf 3c 39 07 83 bc 57 8b bd 3b
       0.096634954 0.023361579 -0.015994655 0.005784433
000030 03 05 a8 3c 12 8d 25 bc 40 6a ed bd f1 34 9f 3d
       0.020510202 -0.010104435 -0.11592531 0.0777377
000040 fb 81 0a be ef b1 9f 3c 08 ec ba 3d 1f ec 03 be
       -0.13526146 0.019494025 0.09127051 -0.12883042
000050 53 82 02 be db 42 34 3b 0e ec 0e be 8f 0b 93 bc
       -0.12745027 0.002750567 -0.13957235 -0.017949848
000060 ea d3 02 bd 3d c7 f6 bd 2b c0 fa bd 0a bb 40 bd
       -0.03194038 -0.120497204 -0.122436844 -0.047053374
000070 49 5c b8 bd 0a c3 1d be cd d4 39 bc 25 5d 71 bd
       -0.09001977 -0.15406433 -0.01134224 -0.05892672
000080 2a a4 42 bd 4d c2 e5 bc 2a 11 31 3d 12 ce 13 be
       -0.04751984 -0.028046751 0.04322926 -0.14434078
000090 3f d6 c5 3d 4e b9 c8 bd c2 5c 30 be 46 26 0e be
       0.09660005 -0.09800969 -0.17222884 -0.13881788
0000a0 92 02 dd bd be 5e c4 3a 5e d0 ae bc 7f 05 bc bc
       -0.10791506 0.0014981849 -0.021339592 -0.02295184
0000b0 45 24 a2 3d 77 a0 3f bd 29 5d 26 3e b6 fe 43 bc
       0.07917074 -0.04678389 0.16246475 -0.011962583
0000c0 3e 59 a7 bd af 32 79 bc 4d 9f e4 3d c3 be 8c bc
       -0.081713185 -0.015209838 0.11163197 -0.017180806
0000d0 e5 68 5c bb 3d 65 48 3d cf e1 0d 3e 41 0b db bd
       -0.0033631858 0.048924673 0.1385567 -0.10695506
0000e0 6b 9a 42 bc 97 f2 21 3e ed 0d 73 3c bc 7a 1b bd
       -0.011877636 0.15815197 0.014834863 -0.037958845
0000f0 c2 3e d1 3d 81 2a 4b bd 42 32 5e 3d d9 7c 78 bd
       0.10217048 -0.04960108 0.05424715 -0.06066594
000100 31 0c 13 3d 84 55 81 bd 16 b2 09 3c 7e cb a1 3c
       0.0359003 -0.06315139 0.008404275 0.019750353
000110 81 f8 0d bd a2 6b a9 bd 55 cc 23 bd d8 9a d2 3d
       -0.03466082 -0.082724825 -0.039989788 0.1028344
000120 46 dc e0 3d cf 69 41 bd a0 ed 5e bd 1a ce e9 3d
       0.10979514 -0.047220048 -0.054425836 0.11416264
000130 5a 2b e9 bd e7 0a 2f bc 5a 24 02 bc 37 6c 07 be
       -0.11385222 -0.010683752 -0.007943237 -0.13224874
000140 85 05 f2 3d 97 c9 df 3d 9c 19 81 bc 6c 1f e6 bc
       0.11817459 0.10927122 -0.015759282 -0.028091155
000150 1c e2 06 3e f6 99 ae 3d bb dd cd bd 7c 72 11 bd
       0.13172191 0.085254595 -0.10052057 -0.03550957
000160 6d 58 b3 bd 06 7a a1 3c be 10 5f 3d f0 28 03 be
       -0.087571 0.019711506 0.054459326 -0.12808585
000170 49 eb f3 bd 3d 69 c2 3d 65 15 d9 bd 78 6c 69 bd
       -0.119101115 0.09492729 -0.10599784 -0.05698821
000180 21 0c 9b 3d c3 de 1e 3d 35 c8 25 bb 28 21 a9 bb
       0.07570673 0.03878666 -0.0025296335 -0.0051614232
000190 e8 ac c6 3d 7c 38 2f 3c c3 32 d0 bd 29 0d 91 3b
       0.09700948 0.010694619 -0.10165932 0.0044266176
0001a0 8a f6 1b be ef 2f 16 3e 2e 06 a4 bb 9c ae bf bd
       -0.15230766 0.14666723 -0.0050056195 -0.09359476
0001b0 f3 ad 00 bc d5 6f c0 bb cd 44 59 3c d2 3a 6d 3d
       -0.007853973 -0.0058727064 0.013261032 0.057917424
0001c0 0d 7c 98 3d c0 76 ef bd 8d 41 03 be 38 da 9d bd
       0.07445536 -0.11692572 -0.12817974 -0.077076375
0001d0 e3 fd ab bd e0 d3 28 3e b7 41 7f bc c6 6c c0 bd
       -0.083980344 0.16487074 -0.0155796325 -0.09395747
0001e0 2b 34 0c 3d 94 d3 76 bd 5a fc 1f 3d 8c 81 f0 bd
       0.03422944 -0.06026037 0.03905902 -0.11743459
0001f0 43 19 f4 3b e0 39 e3 3c 05 6f a5 3d 85 f6 2d 3d
       0.0074493005 0.027737558 0.08077816 0.042471427
000200 e6 b6 92 3c 5c 19 0c 3e cc fa 00 be 42 8b 80 3c
       0.017909478 0.13681549 -0.12595671 0.015691403
000210 e3 96 16 bd f7 e3 8c 3d ac 2d 09 3d 68 b0 86 bd
       -0.03676499 0.06879418 0.03349082 -0.065766156
000220 82 03 17 bc 0a 1f 85 bd 00 a6 15 3b b5 ad 27 bd
       -0.009217145 -0.06500061 0.002283454 -0.040937144
000230 ed cc c1 bd 95 e6 1d be f1 28 21 be ad 9b b8 bd
       -0.094629146 -0.15419991 -0.15738274 -0.09014068
000240 ad 63 a1 3d e0 a6 97 bd 09 c1 98 3d 24 9b 3d 3d
       0.0788034 -0.07404876 0.074586935 0.04629053
000250 0e 9b a6 3d da d2 e6 ba d0 66 b3 bd a4 6d af 3d
       0.08135043 -0.0017610446 -0.08759844 0.08565834
000260 8b 0f ca bd 4c 2f 89 3d 27 19 88 3d 71 7b b8 3d
       -0.09866246 0.06698474 0.066454224 0.090079196
000270 e9 68 c5 bd 70 c8 18 bd 9e 00 e8 3d 6d fd fe 3d
       -0.09639151 -0.037300527 0.11328243 0.12450681
000280 a3 d8 88 3d 71 2c b3 3d 21 3e ce bd e5 c1 c5 bd
       0.06681945 0.08748711 -0.10070444 -0.09656123
000290 aa 12 8b 3d 64 19 2d 3c 63 bc 72 3d 55 2a 17 be
       0.06790669 0.010565136 0.05926169 -0.14762242
0002a0 7f 71 be 3d d5 c9 b4 3d e7 1d b2 3d d9 c5 67 bd
       0.092989914 0.08827559 0.0869711 -0.056585167
0002b0 2b ac a6 bd 46 a8 c9 bb cd 64 d4 3d 87 d9 15 3d
       -0.08138307 -0.006154093 0.10370789 0.036584403
0002c0 75 95 25 3d 6d 87 2e 3c 76 3a a9 3d a0 11 11 be
       0.040425736 0.010652405 0.08263104 -0.1416688
0002d0 db 7c 88 bd 9c 76 68 3d 7d 4b 37 3c 7f b0 ce 3d
       -0.06664439 0.05675374 0.011187431 0.10092258
0002e0 75 ad 7d bd 8b 0c 2a 3d 92 38 e3 3d de f4 b7 3c
       -0.061933 0.04151587 0.11094774 0.022455629
0002f0 cd df a4 bd 70 0e af 3d cd b8 eb bd f2 50 92 bd
       -0.08050499 0.085476756 -0.11509857 -0.07144345
000300 f0 89 09 be 37 c1 2b 3d b7 90 86 bd b9 23 82 3d
       -0.13431525 0.04193231 -0.06570571 0.0635447
000310 dd e1 91 3d 90 d3 55 3d ba b3 8d 3b 18 c4 d1 3d
       0.07123158 0.052203715 0.0043244036 0.1024248
000320 af 6d 09 3e 3b 1b 9f bd f7 ce b5 3c ed 93 c6 3c
       0.13420747 -0.07768866 0.022193415 0.024240458
000330 1d 82 b0 bd 47 58 bd bd 71 5b 07 be f9 03 11 3e
       -0.08618567 -0.09245353 -0.13218476 0.14161672
000340 6d 90 f8 3d 82 9b a4 bd 74 cb c1 3d 2d fc a6 3c
       0.12136922 -0.08037473 0.09462634 0.020383919
000350 2d e0 e7 3d 4a ee 22 be 5e ac 30 bd 2a 83 10 be
       0.11322055 -0.15911213 -0.043133132 -0.14112535
000360 6c c4 14 3e 1d f5 be 3d 16 d6 a7 bc 98 da 0c be
       0.14528054 0.093240954 -0.020487826 -0.13755262
000370 99 61 cc 3d ac bb d2 3d 85 6b cc bd f2 df a7 bd
       0.09979553 0.10289702 -0.09981445 -0.08197011
000380 ad 7f 9a 3d 70 bf 31 3d 75 37 0b 3e 44 f8 18 3d
       0.075438835 0.04339546 0.13595374 0.03734614
000390 e1 24 1b 3d 63 9e 03 bd 3d 2c 67 bd 07 89 3c bd
       0.037876967 -0.03213347 -0.056438673 -0.046029117
0003a0 c2 2c 7c 3c fa 2f 00 be 00 a1 1b 3d c6 6f 84 3d
       0.0153915305 -0.12518302 0.03799534 0.064666316
0003b0 e1 25 98 b9 7a bd 37 bd 86 07 c2 bd 95 0c fc bd
       -0.0002901992 -0.044858433 -0.09474091 -0.12307087
0003c0 c0 9b b3 bd 07 dd 20 bd 27 fa 0d 3c ff 91 88 bd
       -0.08769941 -0.039273288 0.008665598 -0.066684715
0003d0 1d 06 63 3b f0 74 34 be 52 5b 26 bd 9c 02 07 bd
       0.0034641095 -0.17622733 -0.040614434 -0.032961473
0003e0 c7 aa 26 bd a3 4d 1c 3e d8 2e ff 3d 55 3c ff 3c
       -0.04069021 0.15263991 0.124601066 0.031156698
0003f0 ab 7a 0c be cb 20 d9 bc 63 8f 9c bd 1f 64 14 3e
       -0.13718669 -0.026504895 -0.07644536 0.14491318

sequential/conv2d_1/Conv2D f4 [64, 3, 3, 32]
000000 52 01 54 bc 15 ac fb 3c cd 5d 1c bc 4d 2e f2 3c
       -0.012939768 0.030721704 -0.009543848 0.029563094
000010 8e 6f 47 3e 74 04 da 3d 79 23 41 bd 5e 5b 14 3e
       0.19476148 0.106453806 -0.04715297 0.14487979
000020 83 4e 51 3d 43 20 37 be 5b fd 8e 3d 4f 54 f5 3b
       0.051100265 -0.178834 0.069819175 0.007486857
000030 08 60 79 bd a6 52 c3 bd 2e aa 54 3e ec e6 eb bc
       -0.0608826 -0.09537248 0.20768043 -0.028796636
000040 7a f7 28 3e 78 57 0b 3c 8e 27 d3 3a 8e b4 9f bc
       0.16500655 0.008504741 0.0016109811 -0.019495275
000050 df 4f 2a 3d 88 d6 14 3d f6 30 44 bd 81 8e da bd
       0.041580077 0.036337405 -0.047898255 -0.10671712
000060 6f 17 de bc 20 cb 1f be 19 9c 02 3d e0 27 20 be
       -0.027110783 -0.1560483 0.031887148 -0.15640211
000070 b9 bf c0 3c 85 4d 5e bc 40 8b 42 bd e5 9c 42 bd
       0.02352892 -0.013568287 -0.04749608 -0.047512908
000080 64 2e f3 3c cf 68 28 bd b7 60 25 be d6 db 81 bd
       0.029685207 -0.04111558 -0.16150175 -0.063407585
000090 5b cb 21 bd 3c da 8f bd b3 f2 b5 bd 45 d8 1b bd
       -0.039500576 -0.07024047 -0.08884182 -0.038048048
0000a0 41 62 81 3c 4b 1b 02 be af d7 fe 3c df 00 8d bd
       0.015793921 -0.12705724 0.031108705 -0.06884932
0000b0 1c 86 f3 bd 01 e8 10 bc 48 cf 02 3d ed cc 98 3c
       -0.11890814 -0.008844377 0.03193596 0.018652404
0000c0 f7 2f 33 bd a6 b4 b1 3c 23 f9 3f bd a5 b0 02 be
       -0.043746915 0.021692585 -0.046868455 -0.12762697
0000d0 9b e4 27 bd 26 0c 56 bd ae ff 65 3d a0 b6 af bb
       -0.0409895 -0.05225768 0.05615204 -0.005362347
0000e0 a7 e1 ae 3d c2 01 43 bd 08 1a 8f bd 6b bc 03 3d
       0.085391335 -0.0476091 -0.06987387 0.03216211
0000f0 bc c8 81 bd 9f d4 6d 3d 74 72 2d 3d da 23 22 3b
       -0.06337115 0.0580641 0.04234548 0.0024740607
000100 1b bb 1d bd 93 6c 3d bd 6e 9b 1b be a0 30 73 bb
       -0.038508516 -0.046246123 -0.1519601 -0.003710784
000110 7e b0 94 3c 0b 59 a4 3d cf 12 b4 bd 17 2e 84 3d
       0.018150564 0.08024796 -0.0879265 0.064541034
000120 9a 5f c5 bd 35 5e 06 bd ca 77 36 bd 65 7e 83 3c
       -0.09637375 -0.032804687 -0.044547834 0.01605148
000130 91 d8 bc bd e7 b9 9e bd 56 0b cf b8 94 cf f6 bd
       -0.09220994 -0.07750302 -9.872641e-05 -0.12051311
000140 8b 4f 3f bd 68 9c a2 bd fb 40 95 bd d0 a0 b4 3c
       -0.046706717 -0.079399884 -0.07287785 0.022049338
000150 9b 23 8e 3d ec 21 f9 bc e6 31 56 bd 4a 65 74 bc
       0.06940385 -0.030411683 -0.05229368 -0.014916727
000160 db 38 02 3d f0 3a 0d bd 07 80 5b bd ad 3d 5e bd
       0.031792503 -0.034480035 -0.053588893 -0.054258037
000170 0d 30 a9 bd b3 da bc 3c 11 c8 ca bd b1 64 7b 3d
       -0.08261118 0.023053503 -0.09901441 0.061375324
000180 8f 1c 0e be 16 c5 24 bd 8b 07 04 3d be c1 8a 3c
       -0.13878082 -0.04022702 0.032233756 0.016938087
000190 71 ac f8 3d 51 d6 cc 3d 6c a1 4d bc f7 d1 26 3e
       0.121422656 0.10001815 -0.012550693 0.16291033
0001a0 26 ca 72 3d 06 9f 0c bd 1c e8 02 3e ee 8d 09 3e
       0.059274815 -0.034331344 0.12783855 0.13433048
0001b0 65 8b 4f bc 7f 63 c9 bc 2d a2 fa 3d ec 2a ba 3d
       -0.012667512 -0.024583576 0.12237964 0.09090218
0001c0 68 7a d4 3d 1c a4 19 bd 65 65 22 bd e2 d8 03 bd
       0.1037491 -0.037510023 -0.03964748 -0.032189257
0001d0 c6 1b 4a 3d 2c b9 c8 bb 1e 57 93 3d a8 fe 70 bd
       0.049342893 -0.00612559 0.07194351 -0.05883661
0001e0 c7 a7 b9 bd 87 a0 5f 3c 43 f2 8f 3d 91 3a 9e bd
       -0.09065204 0.013649113 0.0702863 -0.077260144
0001f0 97 c4 c3 bd 52 37 7c 3d 16 5b 1b bc 79 68 6e 3d
       -0.09558981 0.061576195 -0.009482166 0.0582051
000200 d1 7c aa bd 9f a4 ab 3a 62 2d 52 bc 03 92 fe 3c
       -0.08324588 0.0013095326 -0.012828203 0.031075483
000210 a2 e0 d6 3c 4a 60 00 bd 2a 8d 6e 3d 4a 04 9a 3d
       0.02623016 -0.03134183 0.058240093 0.07520349
000220 55 34 78 3d e0 71 17 bc dc 7e f3 3c 82 4f 97 bd
       0.060596783 -0.0092434585 0.029723577 -0.07388212
000230 df 4f dc bd af cd de bd 24 c6 cf 3b 96 ed 2d bd
       -0.10757422 -0.10879075 0.006340759 -0.042462908
000240 3f 1a 38 3d ac be 59 3c bb b0 f8 3c 55 28 fd bd
       0.044946905 0.013290089 0.03035771 -0.12361208
000250 ec 25 da 3c 2d 67 85 bb c1 d2 5b 3d 6c f2 9f 3c
       0.02662941 -0.0040711374 0.053667787 0.019524775
000260 de d6 a1 bc ef 6a e1 3c 96 79 40 3d c2 73 8f bd
       -0.019755777 0.02751681 0.046990953 -0.07004501
000270 d1 e9 93 3d 08 e0 4f bc 93 bb a9 bd 8c 38 07 bd
       0.07222331 -0.012687691 -0.0828773 -0.03301291
000280 d4 f9 23 3d 46 55 57 bd 7d 76 01 be e9 2c 24 bd
       0.040033177 -0.052571557 -0.12642856 -0.040081892
000290 1c ed 01 3c ce 98 8a 3d 28 68 ac bd 4d 5b 9d 3c
       0.007930066 0.067674264 -0.08418304 0.019208575
0002a0 5a af f2 3a e6 0a 2e bd 9f a1 1a bd 6d 99 e0 bd
       0.0018515394 -0.042490862 -0.03775179 -0.10966764
0002b0 4d 01 44 be 69 88 6b 3b 23 d0 ca 3d 52 db 8f 3c
       -0.19141121 0.003593946 0.0990298 0.017560635
0002c0 db 16 f9 3c 62 30 a9 bd 33 33 d7 bc ea a7 a5 bd
       0.030406406 -0.082611814 -0.02626953 -0.08088668
0002d0 c1 9a 8c 3d 9b 1b 16 ba dd db 9f bd 3b 04 e3 3c
       0.068654545 -0.00057261594 -0.078056075 0.027711978
0002e0 ce 61 f4 3b d8 fe 1b 3d bd e6 b9 bd bf 76 08 be
       0.0074579483 0.038084835 -0.09077213 -0.13326548
0002f0 fc 44 8f bd 43 8f be bd e7 ba 01 bd e6 1a 33 bd
       -0.069955796 -0.09304669 -0.031672385 -0.043726824
000300 f8 6f 96 bd 0b ab 82 bd 52 73 e0 3d 19 f6 0f 3e
       -0.07345575 -0.0638028 0.109594956 0.14058723
000310 38 c0 b0 3d f9 be b6 3d 54 76 68 3d 45 42 aa 3d
       0.08630413 0.08923144 0.05675347 0.08313421
000320 4a fc a7 ba 82 ca 21 be e4 e7 a0 3d 80 2f bd 3d
       -0.0012816277 -0.15799907 0.078567296 0.092375755
000330 a7 b2 81 3d f4 95 4c bd f1 f5 01 3e 7b a1 90 3d
       0.06332903 -0.049947694 0.12691475 0.0706205
000340 21 37 21 3e fa 3e cf 3d 75 ec 8f 3d 1a 67 ba bd
       0.15743686 0.10119434 0.070275225 -0.09101696
000350 31 b9 90 3d 4b 74 12 bc 6b 68 a2 3d 16 1f e6 bc
       0.070665725 -0.008938859 0.079300724 -0.028090995
000360 11 a2 7e 3a de a7 fc 3b b8 8e f8 3c c2 33 8c 3c
       0.0009713481 0.007710441 0.030341491 0.017114524
000370 f1 15 40 3c 26 db a3 3d f0 2a 1b bd 0d b4 dc 3d
       0.011723981 0.080007836 -0.037882745 0.107765295
000380 94 29 30 bd 9d 18 6c bd b5 b3 1f 3c b2 ac 5e 3d
       -0.043008402 -0.05764066 0.009747435 0.054363914
000390 8f 00 bb 3d 33 1c b1 3d 32 c7 3f bd 81 7f 70 3d
       0.09130966 0.08647957 -0.046820827 0.058715347
0003a0 bc b5 80 3d 18 9a b0 bd 10 c3 e3 bc 92 5c 11 bd
       0.06284663 -0.08623141 -0.027802974 -0.035488673
0003b0 b1 af 9e bc 45 e2 c4 bc f9 e6 f8 3c 7f 88 92 bd
       -0.019370886 -0.024033675 0.030383574 -0.07154941
0003c0 76 64 44 3d f7 e2 c2 bc 43 62 00 3d d1 56 8d bd
       0.04794737 -0.023789866 0.03134371 -0.069013245
0003d0 94 ed 7a 3d 60 90 9c bc e1 41 79 3d b2 c3 41 39
       0.06126173 -0.019111812 0.060853843 0.00018478816
0003e0 68 d1 2e bb d7 d2 74 3a 41 ac 62 3d d7 29 db bd
       -0.0026675109 0.0009339279 0.055340055 -0.1070134
0003f0 f4 30 b2 3d 3a 00 82 3d cc 23 95 3d 29 75 b5 3c
       0.08700743 0.063476995 0.07282218 0.022150593

sequential/conv2d_2/Conv2D f4 [128, 3, 3, 64]
000000 26 1d b3 bc b7 eb 81 3d ee f5 8a bd 26 e5 20 3c
       -0.021864485 0.06343787 -0.067851886 0.009820258
000010 f1 50 8a bc 8a ec 83 bd b0 88 a0 bd 13 ab 81 bd
       -0.016884299 -0.064416006 -0.07838571 -0.06331458
000020 b6 5e 00 3d b4 4e ee bd b6 87 6d bd 80 fc 69 bd
       0.031340323 -0.11636105 -0.057990752 -0.05712557
000030 df fc 17 bd 97 12 91 bc b9 87 bc 3c 09 b7 38 bd
       -0.03710639 -0.01770906 0.023013936 -0.04509643
000040 1d 95 42 bc 90 1c ba bb cd a6 95 bc b3 ed 2c bd
       -0.011876372 -0.0056796744 -0.018268013 -0.042218875
000050 1d 2c ab 3c 9a 46 16 3d 94 76 f2 bc 49 2f 8a bd
       0.020895058 0.036688425 -0.029597558 -0.067473
000060 1d 37 01 3d 79 64 b3 bc da bd 8c bd 86 43 76 3d
       0.0315467 -0.021898495 -0.06872149 0.06012299
000070 63 fe 13 bd 8b 06 72 3d b7 84 94 3c c0 82 a9 bb
       -0.036131274 0.05908827 0.01812969 -0.0051730573
000080 c9 d5 66 3d 48 93 b9 bc 40 ce f2 3c 73 af fb 3b
       0.056356225 -0.022653237 0.029639363 0.0076808273
000090 79 2a 95 bd 74 8f 9b 3c fa f1 fb bc b5 6b 18 3d
       -0.07283492 0.018989302 -0.030755032 0.037212092
0000a0 55 53 5e 3d 6f f2 1b bd 19 68 ab 3b 72 0d 79 3d
       0.05427869 -0.038073 0.0052309153 0.060803838
0000b0 5a 18 18 3d 1f 56 9a bd 13 aa d0 bd a8 af 3d 3c
       0.0371326 -0.075359575 -0.10188689 0.011577524
0000c0 21 47 0a bd 8a 9c 2b bc e5 7c 6a bd 1a 89 8f bb
       -0.03375924 -0.010474334 -0.057248015 -0.0043803575
0000d0 9c b5 28 3e 10 38 4b 3c b1 6a ae 3d d0 f4 fb 3a
       0.16475528 0.012403503 0.085164435 0.001922274
0000e0 93 fe 39 bc f7 ad 9b 3c 27 dc 0f 3d 66 29 84 3d
       -0.011352199 0.019003851 0.035122063 0.064532086
0000f0 9b aa 18 3d 71 e6 af bd 11 f8 85 bd 32 fa 02 bd
       0.037272077 -0.08588875 -0.065414555 -0.031976886
000100 90 9c b2 3c d7 f5 76 3d 8f 0e 43 3d 58 ba 08 bc
       0.02180317 0.060293045 0.047621306 -0.008345209
000110 96 8d 82 3c bd 1e 71 bd d6 f1 71 bc 7f d6 2a bc
       0.015936654 -0.058867205 -0.014767131 -0.010427116
000120 f3 9a f8 bc a5 ea 9c bd 68 f8 0b bd 10 33 8e bd
       -0.030347323 -0.076619424 -0.034172446 -0.06943333
000130 ee fe de 3c 32 c3 21 bb c0 2f 13 3d b2 b1 87 bc
       0.02722117 -0.0024682996 0.03593421 -0.016564224
000140 ef bd 76 3d 51 f5 80 3d 3d 0b 81 3c be 9a 2a bd
       0.06023973 0.062967904 0.01575243 -0.04165148
000150 0f 81 28 3d 9f 3b 51 bd f4 8a 28 3d 21 18 c3 3c
       0.041138705 -0.05108225 0.04114814 0.023815216
000160 06 f3 ba bb 21 89 03 3d 18 d3 c6 3a 71 5b 54 3d
       -0.00570524 0.0321132 0.0015169112 0.051845018
000170 3e cd 4c bd cf fc 1e 3e 7b 70 86 3d 82 0d 78 bd
       -0.05000042 0.15526126 0.06564423 -0.060559757
000180 9b 57 56 bd c9 af bc 3c b1 ac a8 3d 70 f7 02 bd
       -0.05232964 0.02303304 0.08236063 -0.031974256
000190 b1 a8 0a be d8 57 53 bd 8a db 0d 3d 46 f5 02 bd
       -0.13540913 -0.051597446 0.034633197 -0.031972192
0001a0 32 41 aa 3d 65 19 21 bd 33 0b 3d 3c ac 62 b5 3c
       0.08313216 -0.03933086 0.011538315 0.022141777
0001b0 04 1b 80 3d 40 0e 28 bd f9 64 a0 bd 3e 19 39 3b
       0.06255153 -0.041029215 -0.07831759 0.0028243805
0001c0 82 0f 8b bd 0a d5 ad 3c 1a 80 ce bc 10 40 d9 3c
       -0.06790067 0.021219749 -0.025207568 0.026519805
0001d0 7c 74 d2 3d d2 82 53 3d e1 8e 37 3d b9 82 9e bd
       0.10276124 0.05163843 0.044813994 -0.07739777
0001e0 49 34 7a 3d 76 08 26 3c 46 ec f0 bc f3 d6 6c 3c
       0.06108502 0.010133853 -0.029409539 0.014455545
0001f0 f2 20 0d 3c d3 82 37 bd b9 d2 5a 3c 6e 38 40 bd
       0.008613812 -0.044802498 0.013355904 -0.046928816
000200 fb 65 b4 3d fc f5 25 3c 3b 38 2d bd d0 54 bb bb
       0.08808514 0.010129448 -0.042289954 -0.0057168975
000210 8b 5d d2 bc f1 6e 2b 3d 1c 45 39 3d 9f f1 05 bd
       -0.02567937 0.04185385 0.045231923 -0.03270113
000220 3c b2 a3 3d 90 15 53 bd 71 14 a0 3c 8b f7 52 bd
       0.0799298 -0.051534235 0.019540997 -0.051505607
000230 6e 9a c7 3c 79 c2 10 bd 54 90 e3 3c 3b e3 10 bd
       0.02436563 -0.035341714 0.027778782 -0.035372954
000240 46 d0 43 3c de 2f 99 3b cf 55 8e bd 8b 96 07 3c
       0.011951512 0.0046748957 -0.069499604 0.008275638
000250 0c 20 50 39 26 84 12 3d 6f 2f 23 3d 71 a4 c4 bc
       0.00019848364 0.035770558 0.039840158 -0.024004193
000260 b4 de e3 3a 8d 2c d1 bd 88 d7 74 3c 44 be 26 3d
       0.0017385096 -0.102135755 0.014943965 0.040708795
000270 9f b0 93 bc 79 bf ca 3c ca d7 0e bd 51 a6 73 3b
       -0.018028555 0.024749504 -0.03487376 0.003717799
000280 ca 8c 0b bd 1c b4 0d bd ba c8 c0 3b 3b 6a 5e bd
       -0.034069814 -0.034595594 0.0058833035 -0.054300528
000290 25 de 80 bd 9f 2d 1b 3d fe e8 84 3c 9f 59 79 3a
       -0.06292371 0.037885305 0.01622438 0.0009511951
0002a0 23 ed 85 3d 2b 69 99 bd 25 07 de 3b fd c0 86 3d
       0.06539371 -0.07490762 0.006775754 0.06579778
0002b0 15 0c b8 bc da 3c e2 bc b6 be 39 bd db a4 c1 3c
       -0.022466699 -0.027616907 -0.04534789 0.02363818
0002c0 ef a7 c3 bc 3d 70 c4 3b d6 56 8e bb 71 a7 07 3c
       -0.023883788 0.005994825 -0.0043438477 0.008279667
0002d0 19 98 a2 3d 3f 50 c4 3a 92 3e 84 bc e7 87 64 bd
       0.079391666 0.0014977528 -0.016143117 -0.05579367
0002e0 b4 04 ce bc 8d 8f cb 3c b8 0b fe bc 64 95 b0 3c
       -0.025148727 0.024848724 -0.031011447 0.02155561
0002f0 ce 65 cd 3c f7 c8 7d bd 47 18 1a bd 2b 99 62 3d
       0.025072958 -0.061959233 -0.03762081 0.055321854
000300 14 6c 9f bc 77 1e 18 3d b7 25 72 bd 6e 1d 76 3d
       -0.019460715 0.03713843 -0.059118 0.06008666
000310 65 24 25 3d e1 54 e7 3c a6 72 86 bd 07 f1 a2 bd
       0.04031791 0.028238716 -0.06564836 -0.079561286
000320 08 ff e9 3c bd e4 67 bd a8 73 ea 3c ff db 1f bd
       0.028563991 -0.056614626 0.028619602 -0.039028164
000330 32 dd 46 3d 10 ec b2 bc fa 92 34 bd 16 9a 36 bd
       0.048550792 -0.021841079 -0.04408548 -0.04458054
000340 6b 9a 25 bc da 25 56 bc 2f 63 0f bb 60 8d 1e bb
       -0.010107617 -0.013070548 -0.0021879186 -0.0024193153
000350 38 4d 65 3c 77 be 2a 3d 0e c9 5c bd 98 8f be bc
       0.013995461 0.041685548 -0.05390268 -0.02326183
000360 65 b0 9c bd bc 7a ce bc 24 1e a5 bb 15 d0 f8 3b
       -0.07650832 -0.025205009 -0.0050389934 0.0075931647
000370 41 d1 6c 3d 29 20 c2 3b 00 30 8b 3c 81 6b a9 bd
       0.057816748 0.005924244 0.016990662 -0.08272458
000380 44 ab cf bc 5b d2 c6 bb 46 93 bc 3a 9a ef 32 bd
       -0.02535022 -0.006067557 0.0014387153 -0.043685533
000390 ef c5 82 bd 5a ce 3c bd a9 5c 72 bc 77 54 62 bc
       -0.06385409 -0.04609523 -0.0147926 -0.013814083
0003a0 cd c0 04 3d 00 b2 90 bd fc 2f 90 3c ee 2b 3f bd
       0.03241043 -0.07065201 0.017601006 -0.046672754
0003b0 9b 24 39 bd 41 a0 33 bc 85 57 75 bd 68 cf a5 bc
       -0.045200925 -0.0109635005 -0.05989792 -0.0202405
0003c0 eb bf cb bd f1 4c f0 bd 44 a5 32 bd c9 7b 41 bd
       -0.09948715 -0.117334254 -0.04361464 -0.04723719
0003d0 2e 7f 06 3d 27 e9 c1 bc 45 8a 1d 3d 8f e7 1c 3d
       0.03283613 -0.023670746 0.038461942 0.03830677
0003e0 90 87 a9 bc 2a 61 d0 bb fa 96 a6 bd 0e 5c 5c 3d
       -0.020694524 -0.006359239 -0.08134265 0.053798728
0003f0 24 02 84 3d 8f ee 3f ba a9 fd c1 3b 69 81 86 bd
       0.06445721 -0.000732162 0.005920131 -0.06567652

sequential/dense/BiasAdd/ReadVariableOp f4 [6]
000000 2e d0 72 3c 36 23 28 bd 9a e9 48 3c 84 19 b4 3b
       0.014820142 -0.041049205 0.012262726 0.0054962058
000010 ab 2e 3a 3d 81 4a fa bc
       0.045454662 -0.030553104

sequential/dense/MatMul f4 [6, 25088]
000000 63 1c 3b bd 1b 93 77 3c 9a 9b a5 bb 4b 15 40 3c
       -0.04568137 0.015110756 -0.0050539495 0.011723827
000010 36 39 e0 3b 2d cc 0d bc ca ab 37 bd 36 03 57 bc
       0.0068427576 -0.008654636 -0.044841565 -0.013123324
000020 dd a7 b6 bc 65 82 a7 3d 68 10 0f bd d1 44 d4 bc
       -0.02229684 0.08179168 -0.034927756 -0.02591172
000030 89 19 21 bc 73 ee f1 bc a9 77 3d b9 b0 6f 59 3c
       -0.009832748 -0.029532647 -0.00018069021 0.013271257
000040 42 ba 1a bc 77 df d7 3b 2f a9 a4 bd 99 02 b4 bb
       -0.009443821 0.0065879184 -0.08040082 -0.0054934737
000050 46 bf 27 bd 7b a6 13 bc c7 1e 98 bc 1e 01 f2 3d
       -0.040953897 -0.00901186 -0.018569363 0.11816619
000060 19 d3 6f bd de a9 d5 bb 36 17 26 bd c5 d5 50 bc
       -0.058550928 -0.006520494 -0.04054948 -0.012746279
000070 dd 60 10 3c 9e 24 8c bc 01 9d 3a 3c 8f a2 ce 3b
       0.0088121565 -0.017107304 0.011389972 0.0063059996
000080 f7 10 82 bb 28 62 12 bc c5 64 a8 bd 5c 09 3c bd
       -0.0039693075 -0.008934535 -0.08222345 -0.045907363
000090 59 d1 8d 3d cb a2 0c 3d 52 ba f2 3b de 84 2e ba
       0.069246955 0.03433494 0.007407465 -0.0006657372
0000a0 bb 25 37 3c f3 a9 8c 3b d0 a2 37 3b 12 ab c5 bd
       0.011178429 0.0042927205 0.0028020628 -0.0965177
0000b0 79 89 f7 bb 6e 50 0d bd c1 17 77 3c f4 43 70 bc
       -0.00755423 -0.03450053 0.015081347 -0.014664639
0000c0 7c b8 0b bd ac bd 63 bc 39 e2 d2 3c 07 57 13 bc
       -0.034111485 -0.013900202 0.025742637 -0.008992917
0000d0 b6 08 54 bd e4 11 e4 3b 49 b0 04 bd 5f b9 d6 3b
       -0.05176612 0.0069601405 -0.03239468 0.0065528597
0000e0 8f 41 48 3c 30 61 c4 3c 86 15 83 bd 33 81 5a 3b
       0.012222662 0.023972124 -0.0640059 0.003334117
0000f0 7d 8f 0d bd 4a 94 2e bd 0c 8e 3e bd 7c 37 e5 3c
       -0.03456067 -0.04262189 -0.046522185 0.027980559
000100 18 05 81 3b df 3f 70 bc d6 3c 05 bd 9e 8a 8e bc
       0.003937375 -0.014663666 -0.03252872 -0.017400082
000110 6b f5 0d 3d d0 ad fc bb 6b 97 52 bd 8d 4e 24 bd
       0.034657877 -0.0077111498 -0.051413935 -0.040113974
000120 e1 1b 01 bd ce 37 3c bd 72 e2 34 3d 7c 11 7a bd
       -0.031520728 -0.045951657 0.044161268 -0.06105183
000130 02 de a6 3c 7e 6e b5 bc ba 33 b6 bc b3 5c 07 bd
       0.020369533 -0.022147413 -0.022241462 -0.03304739
000140 1b df 6a 3c b5 a5 98 3a c3 47 9a 3a 38 24 75 bc
       0.014335419 0.0011646064 0.0011770654 -0.0149622485
000150 a1 3e f8 bb 11 d0 d3 3c 6b a3 17 3d 4c da 36 3c
       -0.0075758253 0.02585605 0.037021082 0.0111604445
000160 18 06 a2 bd 27 4e 0d bd ca ee 4f bb 2b 45 99 ba
       -0.079113185 -0.03449836 -0.0031728023 -0.0011693587
000170 54 36 56 3c 2a bb ec 3b b4 a3 a7 bb 6f dd 2b bd
       0.013074476 0.00722446 -0.0051159505 -0.041959222
000180 62 fb 3b 3d 16 a3 34 bd b3 9f 43 bc 50 ae 50 bb
       0.045894034 -0.044100843 -0.011939931 -0.003184218
000190 32 79 fd 3b 23 c4 11 3d f1 af 1e bc 40 f2 a8 3c
       0.007735395 0.03558744 -0.009685502 0.020623326
0001a0 f4 8a e4 3a ff 39 71 3c 82 0d 8c 3c a4 72 c9 bc
       0.0017436431 0.0147233 0.017096285 -0.024590798
0001b0 78 83 3a bd a2 43 1a bd 14 f2 55 3d a0 92 82 bc
       -0.045535535 -0.037662156 0.052232817 -0.015939057
0001c0 83 ab 82 bd a8 94 bd 3b 78 a6 ce bc e0 8a 8b 3b
       -0.063803695 0.0057855435 -0.025225863 0.0042584985
0001d0 75 dd 54 3b a1 0d 22 bd f7 cf 31 bc 2f 12 cf bd
       0.0032480631 -0.03956378 -0.010852805 -0.1011089
0001e0 e6 a7 89 3c d2 e1 4a bc 50 62 65 bb 11 91 fe bc
       0.016803693 -0.012382941 -0.0035001226 -0.031075032
0001f0 ea 91 21 bd 39 7e 51 3d c0 3f 49 3c 83 f7 09 3b
       -0.039445795 0.051145766 0.012283266 0.002105207
000200 a4 67 8e bd 5e 9a b5 3b 6f c4 e9 3a 1c 93 0c 3c
       -0.06953362 0.0055420836 0.0017835031 0.0085799955
000210 da a1 52 3c a2 da 8b 3c 20 99 3e bd 1d d8 50 bc
       0.012855971 0.017072026 -0.04653275 -0.012746838
000220 34 54 8a bc 24 9d 3a 3d 59 17 72 bd bd 69 f2 bc
       -0.016885854 0.045560017 -0.059104297 -0.029591436
000230 3c 92 f3 bc 33 b1 94 bd 30 4c 39 bc 4d b9 24 bc
       -0.029732816 -0.072603606 -0.011309668 -0.010053945
000240 c7 49 0c 3c ac 86 45 bc 4c 44 86 bd da e9 97 bb
       0.008562512 -0.012056034 -0.06555995 -0.0046360316
000250 74 77 45 ba b6 10 aa 3a 82 c2 2c bd 7d d1 bf 3c
       -0.00075327535 0.0012974951 -0.042177685 0.023415321
000260 24 b3 ce bd dc f4 6c 3c be 3f 58 bd 09 35 a7 bc
       -0.10092762 0.014462676 -0.052795164 -0.020411031
000270 24 7a a2 bc 04 49 8b bc f2 34 3b bb f4 93 23 3c
       -0.019833632 -0.01700259 -0.0028565493 0.009984005
000280 82 e9 b4 bb 77 79 7b bc 71 68 2b bd 98 7a 4a bd
       -0.0055210004 -0.015348784 -0.04184765 -0.04943332
000290 74 84 10 3d dc 61 74 3d ea cf 70 3c a9 21 c5 bb
       0.035282567 0.05966364 0.014698008 -0.0060159755
0002a0 a0 e3 d0 bc fd 99 0e bc 8b 0d 39 bc 2b 5a b0 bd
       -0.025499165 -0.008703706 -0.011294733 -0.08610948
0002b0 e0 cd df bb 14 8c ec bc 93 ac bd 3c 97 34 4f 3c
       -0.006829962 -0.028875388 0.023153579 0.012646816
0002c0 d5 70 84 bd c0 df 82 bc c8 c3 c2 bb 75 64 9a ba
       -0.064668335 -0.015975833 -0.005943749 -0.0011779206
0002d0 77 a1 47 bd 40 d4 5e 3a 54 4f 87 bd b3 08 9a bc
       -0.04873797 0.00085002556 -0.066069275 -0.018802976
0002e0 8f 50 ac bb 71 08 2f 3d ea 88 49 bd 75 1e 8b 3b
       -0.005258627 0.04273266 -0.049202837 0.004245574
0002f0 5d d4 a1 bd 94 7a f8 bc 5d 89 a9 bc e6 14 2a 3d
       -0.07901833 -0.030331887 -0.020695383 0.041523837
000300 c0 23 3e bc 40 32 02 3c ff b6 e8 bb 83 89 10 3c
       -0.011605203 0.007946551 -0.007101893 0.008821848
000310 32 13 bf 3c f3 7a 0e bd 07 7b 8b bd 1a bc 82 bd
       0.023324583 -0.034785222 -0.06810575 -0.06383534
000320 dc 6b 3b 3c 1b c8 12 3a 13 e8 12 3c d8 25 45 bd
       0.01143929 0.0005599276 0.008966464 -0.048131794
000330 00 cb 98 3b 9d 4c 37 bd 78 6c 70 3c eb e4 57 bd
       0.0046628714 -0.0447508 0.014674298 -0.052708548
000340 90 8e c3 bc cb 70 d8 ba 53 24 14 bc 27 a9 64 bc
       -0.02387169 -0.0016513107 -0.0090418635 -0.013956345
000350 1a 5d be ba e2 95 9c 3c 3b b9 28 3c af d5 f0 ba
       -0.0014523596 0.019114438 0.010298069 -0.001837423
000360 50 8b 5f bd c8 ae 68 bb d5 b1 f8 bb 7c a6 6b 3c
       -0.054576218 -0.0035504568 -0.0075895586 0.014382955
000370 99 1b 40 39 6e b3 e0 ba ff 8b 76 bb 6b a4 37 bd
       0.00018320828 -0.0017143318 -0.0037620065 -0.044834536
000380 f5 97 30 3d 33 dc bb bc b5 f1 80 b9 66 09 c3 3a
       0.043113668 -0.022932148 -0.00024594148 0.001488012
000390 6e 9c b2 3b 94 57 5b 3b 9e b3 27 bd ab 39 26 3c
       0.005450777 0.0033468949 -0.04094278 0.010145585
0003a0 90 63 51 3c ec 31 a2 b9 f6 41 d1 3b 36 87 bb bc
       0.012780085 -0.00030936243 0.006386037 -0.022891622
0003b0 fb 75 c3 bd 2b 30 ef bc 6a 0b 95 bc d8 d8 79 bd
       -0.09543987 -0.029197773 -0.01819392 -0.060997814
0003c0 71 46 d1 bc 88 5b 72 bc 4f 9c f9 bc dd 0d 82 bc
       -0.025546284 -0.014792331 -0.030470042 -0.015875751
0003d0 08 ec b2 bb 27 df bf bd e3 e9 c9 bb 7a 3e a0 bd
       -0.005460266 -0.09368735 -0.0061619147 -0.078244165
0003e0 73 7b 02 3c 0d ec 86 bb 39 2d 47 bc f7 5e 99 bc
       0.007964003 -0.004117495 -0.012156778 -0.01872204
0003f0 69 b7 d2 3a 6a 8d 3b 3d 51 ba 98 bc 01 3f 30 bc
       0.0016076389 0.04578916 -0.01864353 -0.010757209
